…
model.add(layers.Dense(units=120, activation='relu'))
model.add(layers.Dense(units=84, activation='relu'))
model.add(layers.Dense(units=batch.classCount, activation = 'softmax'))

if __name__ == '__main__':
    print(model.summary())
  #+end_src

  #+RESULTS:
  #+begin_example
  Found 31368 images belonging to 43 classes.
  Found 7841 images belonging to 43 classes.
  Model: "sequential_1"
  _________________________________________________________________
  Layer (type)                 Output Shape              Param #   
  =================================================================
  conv2d_1 (Conv2D)            (None, 30, 30, 32)        320       
  _________________________________________________________________
  dropout_1 (Dropout)          (None, 30, 30, 32)        0         
  _________________________________________________________________
  max_pooling2d_1 (MaxPooling2 (None, 15, 15, 32)        0         
  _________________________________________________________________
  conv2d_2 (Conv2D)            (None, 13, 13, 64)        18496     
  _________________________________________________________________
  dropout_2 (Dropout)          (None, 13, 13, 64)        0         
  _________________________________________________________________
  max_pooling2d_2 (MaxPooling2 (None, 6, 6, 64)          0         
  _________________________________________________________________
  conv2d_3 (Conv2D)            (None, 4, 4, 128)         73856     
  _________________________________________________________________
  dropout_3 (Dropout)          (None, 4, 4, 128)         0         
  _________________________________________________________________
  max_pooling2d_3 (MaxPooling2 (None, 2, 2, 128)         0         
  _________________________________________________________________
  flatten_1 (Flatten)          (None, 512)               0         
  _________________________________________________________________
  dense_1 (Dense)              (None, 120)               61560     
  _________________________________________________________________
  dropout_4 (Dropout)          (None, 120)               0         
  _________________________________________________________________
  dense_2 (Dense)              (None, 84)                10164     
  _________________________________________________________________
  dropout_5 (Dropout)          (None, 84)                0         
  _________________________________________________________________
  dense_3 (Dense)              (None, 43)                3655      
  _________________________________________________________________
  dropout_6 (Dropout)          (None, 43)                0         
  =================================================================
  Total params: 168,051
  Trainable params: 168,051
  Non-trainable params: 0
  _________________________________________________________________
  None
  #+end_example

* Training
  =training.py=
  #+begin_src python :tangle source/training.py
import keras
from keras.callbacks import CSVLogger

import path
from model import model
…
