…
model.add(layers.Dense(units=1024, activation='relu'))
model.add(layers.BatchNormalization(axis=1))
model.add(layers.Dense(units=batch.classCount, activation = 'softmax'))

if __name__ == '__main__':
    print(model.summary())
    keras.utils.plot_model(model, to_file='model.png')
  #+end_src

  #+RESULTS:
  #+begin_example
  Found 39209 images belonging to 43 classes.
  Model: "sequential_1"
  _________________________________________________________________
  Layer (type)                 Output Shape              Param #   
  =================================================================
  conv2d_1 (Conv2D)            (None, 30, 30, 6)         60        
  _________________________________________________________________
  average_pooling2d_1 (Average (None, 15, 15, 6)         0         
  _________________________________________________________________
  conv2d_2 (Conv2D)            (None, 13, 13, 16)        880       
  _________________________________________________________________
  average_pooling2d_2 (Average (None, 6, 6, 16)          0         
  _________________________________________________________________
  flatten_1 (Flatten)          (None, 576)               0         
  _________________________________________________________________
  dense_1 (Dense)              (None, 1024)              590848    
  _________________________________________________________________
  batch_normalization_1 (Batch (None, 1024)              4096      
  _________________________________________________________________
  dense_2 (Dense)              (None, 1024)              1049600   
  _________________________________________________________________
  batch_normalization_2 (Batch (None, 1024)              4096      
  _________________________________________________________________
  dense_3 (Dense)              (None, 39209)             40189225  
  =================================================================
  Total params: 41,838,805
  Trainable params: 41,834,709
  Non-trainable params: 4,096
  _________________________________________________________________
  None
  #+end_example

* Training
  =training.py=
  #+begin_src python :tangle source/training.py
from keras.optimizers import SGD
from keras.callbacks import CSVLogger

import batch
…
